model/model1.pth (torch, 159503 bytes, 4 tensors)

linear1.weight f4 [256, 136]
000000 90 90 aa bc 1a 6f 5e bd 60 8e 4f bc e1 21 94 bd
       -0.020820886 -0.054305173 -0.012668222 -0.072330244
000010 42 a7 09 3d 98 f4 18 bc 3d 1e 67 bd e2 43 2d 3d
       0.033606775 -0.009335659 -0.05642532 0.042301066
000020 01 8d 1d bd 33 60 3e bd e5 a7 8d bd 40 3d 28 bc
       -0.03846455 -0.04647846 -0.06916789 -0.010268509
000030 b8 d1 7b bc 20 89 eb bc 60 a9 91 bb 01 dc a4 bd
       -0.015369825 -0.02875191 -0.00444524 -0.08049775
000040 b1 86 2e bd ca 32 64 3d 58 4e 82 bd cb ac a9 3d
       -0.04260892 0.0557125 -0.06362599 0.08284911
000050 00 3e c2 3c 45 78 a1 3d 86 3d 71 3d 30 95 3e 3c
       0.023711205 0.07884268 0.058896564 0.011632249
000060 dc 1c ef 3c 38 91 b6 3c 04 82 c9 3c 28 04 1b 3c
       0.029188566 0.022286043 0.02459813 0.00946144
000070 27 2d a9 3d f0 ec 1b bd b2 8f 56 bd 29 a0 2e bd
       0.08260565 -0.038067758 -0.052383132 -0.04263321
000080 a0 07 ed bc 20 6c 02 3c b0 0d 5b bd 14 7b 9d 3c
       -0.0289343 0.007960349 -0.05347985 0.019223727
000090 26 9c 8b bd 6d 72 04 bd 68 8b 6b bd d2 41 44 3d
       -0.06816892 -0.032335687 -0.057505995 0.047914334
0000a0 c5 cc 5d bd 90 34 da 3c 58 cd 04 bd f4 03 80 bd
       -0.05415036 0.026636392 -0.032422394 -0.06250754
0000b0 28 66 64 bc 84 a4 a9 bc a4 a5 b2 bc 48 ac 27 3c
       -0.013940372 -0.02070833 -0.0218075 0.010233946
0000c0 74 e3 93 bc 46 84 37 3d 5d cb 8d bd b6 78 94 bd
       -0.018052794 0.04480388 -0.06923554 -0.07249586
0000d0 8d 8e 06 bd 70 b8 cb bc 2b b8 7c bd 5f ed 88 bd
       -0.03285079 -0.02486822 -0.061699074 -0.066859
0000e0 36 a9 3e 3d 5a 8c 7b 3d 59 c3 22 bd 70 2d 8f bd
       0.04654809 0.061413147 -0.03973708 -0.069910884
0000f0 77 54 a9 3d fc da 0f bd 0c c6 83 bc b4 37 86 bd
       0.082680635 -0.03512095 -0.016085647 -0.06553593
000100 7c 0b 6a bd 09 01 ab 3d 45 39 94 3d 9e e2 72 3d
       -0.05713986 0.08349807 0.07237486 0.05929815
000110 7e 26 30 bd f5 f0 43 bd 3a 4a 5c 3d 62 55 81 bd
       -0.04300546 -0.047837216 0.053781725 -0.063151136
000120 41 54 81 3d 15 ef 84 3d 80 2c 62 bc 50 e0 e9 3c
       0.06314898 0.06490914 -0.013804555 0.028549343
000130 e0 35 8e 3b 29 66 37 bd 26 b5 3e 3d a0 8f e0 bb
       0.0043399185 -0.044775162 0.046559475 -0.006853059
000140 40 ff 39 bc ad 23 8c 3d 10 ed 07 bc 92 22 a0 bd
       -0.01135236 0.06842742 -0.008296266 -0.07819094
000150 48 52 0d bd 23 d3 35 bd f2 d6 12 3d 75 22 a0 3d
       -0.034502298 -0.04439081 0.03584952 0.07819072
000160 ec ae cb bc de a6 ad bd 54 5a ec 3c e9 64 46 bd
       -0.024863683 -0.08479093 0.028851666 -0.04843608
000170 54 a6 a1 bd fb ac 6c bd e4 72 88 3c 87 7a 9a bd
       -0.07893053 -0.057782155 0.016656347 -0.075429015
000180 e2 06 11 bd 6c 69 92 bd ca 5b c2 bc 00 69 0e 3d
       -0.035406955 -0.07149014 -0.023725409 0.034768105
000190 ae f2 44 3d 72 7a 8b bd d8 a8 62 3c 8a 06 65 bd
       0.048083 -0.06810464 0.013834201 -0.05591444
0001a0 10 4c e0 3c 2e 60 0a bd e0 56 df 3b 31 42 89 3d
       0.02738002 -0.03378313 0.006815776 0.06702078
0001b0 fc b4 30 bd f0 2d ac bd 3b 1b a2 3d e7 14 9d 3d
       -0.04314135 -0.084071994 0.0791535 0.076700024
0001c0 ae 22 22 3d 00 14 1f 39 50 da d5 bc 18 10 81 bd
       0.039583854 0.00015170872 -0.026105076 -0.06301898
0001d0 02 5b 65 3d cf 32 82 3d 6d 9f 8a bd a3 e6 95 bd
       0.055994995 0.06357347 -0.06768689 -0.07319381
0001e0 50 e7 a2 3c 52 20 77 3d f8 a4 a7 bd a9 67 24 bd
       0.019885689 0.060333557 -0.08185762 -0.04013792
0001f0 36 63 02 3d 40 8a 13 3d 80 0e a7 3a 0b db ac 3d
       0.031832896 0.036020517 0.001274541 0.08440217
000200 c3 c0 47 bd 42 22 9c bd a8 d1 c2 bc 38 37 73 3c
       -0.048767816 -0.07623722 -0.023781613 0.014844708
000210 88 05 40 bc fe 87 57 bd 42 ce 4b 3d 3a 7d 77 3d
       -0.011720069 -0.052619927 0.04975725 0.06042216
000220 60 fc 7e bc de bb 2f 3d f1 58 94 bd c0 e3 27 bb
       -0.015563101 0.042903773 -0.07243527 -0.0025617927
000230 40 54 c0 3a 00 44 3c bd ac 53 0f 3d a1 6a af bd
       0.0014673546 -0.045963287 0.034991905 -0.0856526
000240 fb d3 8c bd 1c f9 96 3c d0 ef f2 bb 82 df 87 bd
       -0.068763696 0.018429331 -0.007413842 -0.066344276
000250 b9 57 a2 3d 27 b9 8c bd 28 e6 db 3c be 20 30 3d
       0.07926888 -0.068712525 0.026843145 0.042999975
000260 d0 d5 b0 3c b9 12 5f bd 87 46 af 3d fa f5 b8 3c
       0.021586329 -0.054461215 0.08558374 0.022578228
000270 a8 6c 66 3c 92 0e 88 bd da f7 21 3d ee 4a 27 3d
       0.014063992 -0.06643404 0.03954301 0.040842943
000280 56 4b 42 bd d5 55 87 bd 08 3e 46 3c 08 0d 5c 3c
       -0.047435127 -0.06608168 0.01209975 0.013430841
000290 44 a1 ed bc 00 60 7e b7 b5 a6 9c bd e8 f4 dc 3c
       -0.029007562 -1.51619315e-05 -0.07648984 0.02697225
0002a0 3c 81 c0 3c 9e 97 70 3d 80 be a4 bb 40 bd e2 bb
       0.023499124 0.058738343 -0.005027592 -0.006919533
0002b0 34 47 cb 3c 38 b3 07 3c 40 82 15 bb 02 be 2c 3d
       0.024814226 0.008282475 -0.002281323 0.042173393
0002c0 94 f8 d8 3c 82 93 45 3d 4b 6e ab bd 23 ff 84 3d
       0.026485719 0.048236378 -0.08370646 0.06493976
0002d0 20 dc 46 bb 40 df 2b 3c 00 be 5d 3c 16 c6 8c bd
       -0.0030343607 0.010490239 0.013534069 -0.068737194
0002e0 00 6f 9f b9 57 6c ae bd 61 0f 3e bd a8 f1 47 3d
       -0.00030409545 -0.08516758 -0.046401385 0.048814446
0002f0 ca 1c 40 bd bd c2 4a 3d 6d b7 a5 bd 80 80 6d bc
       -0.046902455 0.049502123 -0.08091626 -0.014495969
000300 8a 76 68 3d 74 1d 89 3c 01 20 9c 3d e4 45 91 3c
       0.056753673 0.016737677 0.07623292 0.017733522
000310 50 fb 72 3c d0 21 09 bc 62 2b 22 3d 5d d4 50 bd
       0.014830425 -0.008369878 0.039592154 -0.050983775
000320 ec af 8d 3c e8 e4 8d bd 04 29 85 bc 08 b5 f5 bc
       0.0172958 -0.06928426 -0.01625491 -0.029993549
000330 a8 be 6c bc 2f a7 aa 3d 02 e5 88 bd 40 84 6c bb
       -0.014449753 0.08332669 -0.06684305 -0.003608957
000340 0c d1 87 3c 28 13 72 3c 9e 0f 1b 3d 96 8f 65 3d
       0.016579174 0.014775075 0.03785669 0.056045137
000350 c6 39 32 3d 14 9a ab bd a7 9a a8 3d fe 4c 4b 3d
       0.04351213 -0.083789974 0.082326226 0.049633972
000360 b0 5c 1e 3c a0 16 e5 3b 99 53 86 3d bb c7 64 bd
       0.009665653 0.0069912225 0.06558914 -0.05585454
000370 14 71 8a bd 32 5b 3e bc 56 de 7f bc fe f6 82 3d
       -0.06759849 -0.011618422 -0.015616974 0.06394766
000380 20 48 34 bc 26 a7 29 3d 2b b2 3c 3d e9 47 2e 3c
       -0.011003524 0.04141917 0.04606835 0.010637262
000390 1e be 34 3d bc 69 46 bd 82 c2 a7 bd 8a 94 ca bd
       0.044126622 -0.04844068 -0.08191396 -0.09891613
0003a0 1a 3c 5d 3d e9 07 f9 bc 82 47 5e 3c 25 d4 de bb
       0.054012395 -0.03039928 0.0135668535 -0.006800192
0003b0 85 96 13 bd ee 01 40 bd 09 b5 42 3d 21 92 da 3c
       -0.03603222 -0.04687684 0.04753593 0.026681008
0003c0 c9 3c cb bd 50 33 65 3c 19 ce 8f bd 69 1c 70 3d
       -0.09923703 0.013989285 -0.07021732 0.058620844
0003d0 aa 07 01 3d 40 b5 85 3d ff 2d 70 bd b1 8a 8f bd
       0.03150145 0.06528711 -0.058637615 -0.07008875
0003e0 cd 57 65 bd f0 0e 70 3c c8 fa a4 3c 2c f6 cd 3c
       -0.055991936 0.014651999 0.020139113 0.025141798
0003f0 b5 8f 9f 3d 8c 3c c9 3c ef 3a 1b bd 5f 55 8b 3d
       0.07791082 0.024565004 -0.037898 0.068033926

linear1.bias f4 [256]
000000 98 b2 54 3c 4e e0 a7 bd 9f c0 f2 bc 83 2c 8d bd
       0.012982033 -0.081970796 -0.029632865 -0.068932556
000010 03 b6 6e bc f0 d5 f3 bb 2d 97 a7 3d f4 17 12 3d
       -0.014569762 -0.007441275 0.08183131 0.035667375
000020 51 05 e3 3b 20 1f be bc 46 4a e7 bc 01 88 92 bd
       0.006928124 -0.023208201 -0.028233659 -0.07154847
000030 ef f8 7f bd f2 6a 22 3d 5e 00 a2 bd f6 c8 13 bd
       -0.06249326 0.039652772 -0.07910226 -0.036080323
000040 dd 7c 67 bc e6 5e d4 3c dc 31 b5 bc 4d 42 68 bd
       -0.014128891 0.025924157 -0.022118501 -0.056703854
000050 f6 62 3d 3d 9a 4f 0a 3d 52 5a 6b 3d 64 37 8e bd
       0.046236955 0.03376732 0.057459183 -0.06944159
000060 7f 60 2d bd a6 ce 9e 3c 30 8e c2 3b 7d 25 05 3d
       -0.042328354 0.019385647 0.00593736 0.032506455
000070 85 af 06 3d 74 41 8b 3c 6f b2 80 3d d4 87 fc bb
       0.032882232 0.016998984 0.062840335 -0.0077066217
000080 0a 70 c4 bc 3c eb ef bc df f9 f0 3c 72 23 22 3d
       -0.023979206 -0.029286973 0.029416023 0.039584585
000090 9c 1c ac bd f3 f8 46 bd e5 06 ba bc 66 06 ce bc
       -0.08403894 -0.04857726 -0.022708366 -0.025149535
0000a0 cd 04 6e bd 8d 14 91 3d 2d 20 96 3d d9 94 72 3d
       -0.058110047 0.07083998 0.07330356 0.059223983
0000b0 bd 69 75 bd 62 aa 9e 3c 91 24 30 3c 55 65 8a bd
       -0.059915293 0.019368354 0.010750906 -0.06757609
0000c0 7a a3 1c 3c 03 3b f8 3c 0f 3f 53 3d 62 45 63 bd
       0.00956046 0.030301576 0.05157381 -0.05548609
0000d0 6b 59 92 3d ed d2 87 bd ec 27 06 bd 78 a2 86 bd
       0.071459614 -0.06632028 -0.032752916 -0.06573957
0000e0 06 c8 e8 bc 22 fd e0 3c e5 d4 a6 3d c9 c2 cb 3c
       -0.028415691 0.027464453 0.08146075 0.024873154
0000f0 a9 02 a5 3d ea 43 41 bd ec 12 7d bd fc 31 17 3d
       0.08057148 -0.04718391 -0.061785623 0.036912903
000100 02 3a 1d 3d 0e 07 77 3d 21 db b1 bd cc f5 96 3d
       0.0383854 0.060309462 -0.08684374 0.07371101
000110 30 76 7e bc 17 39 1a bd e0 d6 6b 3c aa c6 d4 bc
       -0.015531108 -0.0376521 0.014394492 -0.025973637
000120 bf e3 55 bd 68 15 8b bd a7 76 a7 3d 8e 4a ee 3c
       -0.05221915 -0.06791192 0.08176928 0.029088285
000130 78 80 1c bc 72 ac 80 bd 1a 7b e7 3c 67 f6 9d 3d
       -0.009552114 -0.06282891 0.028256942 0.07713013
000140 86 80 8b 3d 83 95 87 3d b7 19 37 bd be a4 9e bd
       0.06811623 0.06620314 -0.044702258 -0.07746266
000150 e2 d9 90 bd f8 42 94 bc 45 df a4 3d 6e 4b 7e bd
       -0.07072808 -0.01809834 0.08050398 -0.062083654
000160 54 f6 63 3c f6 25 6a 3d 3f 1c 62 bd 5b 29 8a 3d
       0.01391371 0.05716511 -0.05520272 0.06746169
000170 a5 20 1e bd c0 64 a6 ba d8 74 99 bc 23 4c 40 bd
       -0.03860535 -0.0012694821 -0.018732473 -0.04694761
000180 b3 d8 3d bc 20 20 a7 bb ce 2b 7b 3d 54 fe f3 3c
       -0.01158731 -0.005100265 0.061321072 0.029784359
000190 64 6b d7 3c 80 61 e1 3b e8 8e 25 3d 80 d3 19 3c
       0.026296325 0.006878078 0.04041949 0.009388804
0001a0 0f 3e e2 bd 79 d7 aa 3d 84 3a 8e bd 7a 05 fe bc
       -0.11046993 0.083418794 -0.06944755 -0.03100847
0001b0 92 d0 c8 bd 6a 70 a1 bd 0f ec 05 3d 6b 9e 2e bd
       -0.09805407 -0.078827694 0.032695826 -0.042631548
0001c0 fb 47 f1 3c 4d 2c 6d 3d 58 9c 03 bd 58 4b 15 3d
       0.029453268 0.057903577 -0.032131523 0.036448807
0001d0 de 6f fe bc 05 62 93 bd 57 c6 87 bd ee e0 40 bd
       -0.031059202 -0.0719643 -0.06629627 -0.04708951
0001e0 06 3d 72 3d 7d e7 76 bd 30 ee a0 bd 6e c5 8a 3d
       0.059140228 -0.06027936 -0.07857931 0.06775938
0001f0 e0 38 dc 3b aa 65 45 3d d0 9d d3 3c ce 8d 76 3d
       0.006720647 0.048192658 0.025832087 0.06019383
000200 3e f9 c5 bc de 06 35 bd 37 b0 c9 bc f5 26 9d 3d
       -0.0241667 -0.044196002 -0.024620159 0.07673446
000210 46 91 59 3d 26 da a5 bd 40 3f e2 3b 08 98 08 bc
       0.05311706 -0.08098249 0.0069045126 -0.008337028
000220 ec 71 ca 3c d0 59 e3 3c 42 46 28 3d c8 0e 73 bc
       0.024712525 0.027752787 0.041082628 -0.014835067
000230 25 0c ac 3d 40 c4 12 3d 7e bb 38 bd f6 90 d4 bc
       0.08400754 0.03583169 -0.04510068 -0.025948029
000240 7c aa c6 3c d1 23 40 3d 19 cb 27 3d 83 8d 0a bb
       0.024251215 0.046909157 0.040965173 -0.0021141476
000250 50 68 55 bd 08 7b 63 bd 80 22 c4 bc 77 8e 75 3b
       -0.052101433 -0.055537254 -0.023942232 0.003746895
000260 b0 92 b2 bc e3 46 b1 bc c8 33 de 3c 17 19 42 bd
       -0.021798462 -0.021640247 0.0271243 -0.04738721
000270 a0 4f 76 bd 07 bb 90 3d e8 cc 17 bc b1 a8 85 3d
       -0.06013453 0.07066923 -0.009265162 0.06526316
000280 30 0d 0e bc 96 1a c4 bc 2c ad 3c bd 5d 12 13 3d
       -0.008670136 -0.023938458 -0.046063587 0.035906184
000290 a6 81 5c 3d 10 f5 fc 3b ca 8a e6 3c 25 2e a1 3d
       0.05383458 0.0077196434 0.028142352 0.078701295
0002a0 5e b8 76 bd c4 2a 9e bd d0 a8 8f bb 39 5b 84 3d
       -0.06023442 -0.07723001 -0.0043841377 0.06462712
0002b0 32 f0 4c 3b a8 2f 2a bd d4 59 98 3c d4 bb 00 bc
       0.0031271097 -0.041549355 0.01859752 -0.007857282
0002c0 86 42 62 3d ed 60 96 bd cc 6c 63 bd 4a eb 16 3d
       0.055239223 -0.07342706 -0.05552368 0.036845483
0002d0 61 b6 34 3a 29 07 81 3d 48 c6 a0 bc 84 6d 35 3c
       0.00068936317 0.06300194 -0.019625798 0.011073474
0002e0 3e 82 f0 bc e6 ae 26 3d 95 eb 6a 3b ea 62 83 bd
       -0.02935898 0.04069414 0.0035845984 -0.06415351
0002f0 af f7 a2 bd ca ed eb bc 9c 03 db 3c ab af c1 bc
       -0.07957398 -0.02879991 0.02673512 -0.023643335
000300 a1 b7 99 3d a8 25 f5 3c b3 de 8f bd 28 84 c9 bc
       0.075057276 0.029925182 -0.070248984 -0.02459915
000310 70 a2 4b 3c 72 64 9c bd 4e ce 38 bd 2a f5 86 3d
       0.012428865 -0.07636346 -0.045118622 0.0658973
000320 e1 6a bc bd 0b 51 6a bd 04 62 19 3d d9 f2 a0 3d
       -0.09200073 -0.057206195 0.03744699 0.078588195
000330 d3 a4 8b 3d e2 12 7a bd 00 59 6b 3a e6 0c a7 bd
       0.06818547 -0.061053164 0.00089778006 -0.08156757
000340 93 05 75 bd 62 b1 b0 bd c0 b5 60 bb 57 4f 5d bd
       -0.05981977 -0.08627583 -0.003428802 -0.054030742
000350 2c 34 16 bd 40 96 a0 ba 5b 84 6c 3d ea 30 74 bd
       -0.03667085 -0.0012251809 0.05774341 -0.05961696
000360 05 26 d4 3c f8 f3 2b 3c eb 26 14 3d 2e 24 8b 3d
       0.025897035 0.010495178 0.036169928 0.0679401
000370 d4 7b 57 bd 01 49 ac bd ea 90 96 bd 26 36 48 3d
       -0.052608326 -0.08412362 -0.07351859 0.048879765
000380 81 89 25 bd 83 77 aa 3d c1 c3 a7 bd 98 b1 d2 3b
       -0.040414337 0.08323576 -0.08191634 0.006429862
000390 40 e9 f9 3c b2 9b d5 bc f4 3c eb bc c1 c9 d3 3d
       0.03050673 -0.026075218 -0.028715588 0.10341216
0003a0 c5 3b 37 bd 5f ba 3d bd 9a 5b 25 bd 82 ee 50 3c
       -0.044734735 -0.046320315 -0.04037056 0.012752177
0003b0 d0 27 c2 3b 6b 70 9d 3d 83 8e 90 bd b3 e2 9e 3d
       0.005925156 0.07687458 -0.07058432 0.07758083
0003c0 28 0b 3b 3c 97 9a 8d 3d 14 0f c0 bc 80 c1 5e ba
       0.011416234 0.06914251 -0.02344469 -0.00084974617
0003d0 06 65 70 3d c7 e2 8b 3d 78 2c 23 bc 60 67 14 bb
       0.058690093 0.06830364 -0.009959333 -0.0022644624
0003e0 71 80 3a 3d 9f aa 63 bd 1d 30 85 3d 15 45 8a 3d
       0.045532648 -0.05558264 0.065033175 0.067514576
0003f0 9c 53 9a 3c fa 96 f1 bc 47 86 57 bc 57 76 98 bd
       0.018838696 -0.029490937 -0.013154573 -0.074444465

linear2.weight f4 [17, 256]
000000 00 e3 bb bb 24 a5 1c 3d 03 6d de 3c 5e ff 01 3d
       -0.0057338476 0.038243428 0.02715159 0.031737678
000010 78 e9 99 3c 0a 27 07 bd ca a1 3d 3d 68 a3 aa bc
       0.018788084 -0.032996215 0.046296872 -0.020829871
000020 54 16 f9 3c 90 3c a7 3b 28 84 7c 3c f4 a7 ba bc
       0.030406155 0.005103655 0.015412368 -0.022785164
000030 a6 dd 54 3d 1e f6 88 ba d0 fe d3 3c f2 f6 49 bd
       0.051969193 -0.0010449325 0.02587834 -0.04930777
000040 04 51 b5 3c 57 6f a6 bb f0 af 3a bc b8 4d 3e bd
       0.022133358 -0.0050791907 -0.011394486 -0.046460837
000050 a8 c2 2f 3c 88 04 5e bc 32 78 32 3d 58 96 53 bc
       0.010727562 -0.013550885 0.04357166 -0.012914263
000060 74 c4 80 3c 30 76 7f bc c8 fe 5b bc 3e e8 06 3d
       0.015718676 -0.015592143 -0.013427444 0.032936327
000070 d3 c0 2c bd c4 8c 46 3d 6c ea 4e 3d 48 81 e1 3b
       -0.04217608 0.04847409 0.05051653 0.0068818666
000080 90 da ff 3b c8 ce 2a 3d d2 f1 1b bd 66 cc 24 bd
       0.007808037 0.04170111 -0.038072415 -0.040233992
000090 10 ea ba 3c 82 1c 96 3c da 0e 1d 3d 7c 49 18 3d
       0.022816688 0.01832414 0.03834424 0.037179455
0000a0 44 ba 71 bd 48 d4 21 bd 5d 5d 8c bd 0d 39 51 bc
       -0.059015527 -0.039509088 -0.06853745 -0.01276995
0000b0 81 a5 20 3d 8e f6 01 3d 47 6e a7 bc 9a 1c 5c bd
       0.039220337 0.031729273 -0.020438327 -0.053738214
0000c0 84 f6 fc bc 01 e9 1b bd 2c e7 5f bd 30 29 8a bc
       -0.030879267 -0.038064007 -0.054663822 -0.016865343
0000d0 90 8e 39 bd 08 de 79 bc fe e8 5f 3d 95 6c 2d bd
       -0.045301974 -0.01525069 0.054665558 -0.04233988
0000e0 e2 d0 1e 3d 2c a0 2b 3d 48 4f 44 bd 9f b3 3c 3d
       0.038773425 0.0419008 -0.04792717 0.046069738
0000f0 be ca 6b bd 84 78 cf bc 34 99 41 3d 0b a4 48 bd
       -0.057566397 -0.025326021 0.047265247 -0.04898457
000100 e2 b7 21 3d 16 43 3d bd 94 74 5c bd 2c 65 16 3d
       0.039482005 -0.046206556 -0.053822115 0.03671758
000110 84 88 8a bc 38 2c 70 bc de 5e 55 bd 5b 4a 53 bd
       -0.016910799 -0.01465898 -0.052092426 -0.051584583
000120 ac 3d 85 bc 70 19 d1 3c 78 d3 2a bc 7c d2 94 3c
       -0.016264759 0.025524825 -0.010426395 0.018166773
000130 29 6e 2d bd 5c de 66 bd c2 4c 56 3d 1f b2 59 bd
       -0.042341385 -0.056364402 0.052319296 -0.053148385
000140 f7 fa eb bc cd 21 20 3c 09 42 02 bd 87 62 15 bb
       -0.028806193 0.009773684 -0.031801257 -0.0022794323
000150 f0 48 5e 3c fe 10 12 3d 10 94 cc bc 62 eb 88 3c
       0.013567194 0.035660736 -0.024972945 0.016713802
000160 3d 41 60 bc 00 cb 0d bd e0 0f 8a bd 84 98 3d bd
       -0.013687429 -0.034617424 -0.06741309 -0.04628803
000170 f6 e2 58 bd 6c d5 de bc 4b 15 f8 bc 0c 35 e1 3c
       -0.05295082 -0.027201377 -0.03028359 0.027491115
000180 49 37 3a bb 54 b7 83 3c 9b 7f ea bc a0 74 3e 3b
       -0.00284143 0.016078629 -0.0286253 0.0029061213
000190 38 1c 3e 3c e0 de 0e bc 0f d0 95 bb d8 29 ea bc
       0.011603408 -0.00872013 -0.0045719217 -0.028584406
0001a0 c0 ba f0 3c b8 67 57 bc 34 d1 2d bd c0 d6 4c bc
       0.029385924 -0.013147287 -0.04243584 -0.012502372
0001b0 2f 7a 20 bd 48 0a fa 3c b6 b4 76 3d 68 b2 61 3c
       -0.039179023 0.03052248 0.060230933 0.0137754455
0001c0 04 1c 4e bd 82 27 c2 3c e0 14 00 bd fe 31 b3 bc
       -0.050319687 0.02370048 -0.031269908 -0.021874424
0001d0 66 f4 1a 3d a8 3f 08 3c 80 2d 11 ba 40 66 ab bc
       0.037830733 0.008315958 -0.0005538091 -0.02092278
0001e0 f4 a9 a3 3c 63 2d 32 3d ec 83 9c 3c 92 76 de 3c
       0.0199785 0.043500315 0.019105874 0.027156148
0001f0 6d 00 c3 bb 88 b0 8a bd 82 87 2b bd c8 99 e8 bc
       -0.0059509785 -0.06771952 -0.041877277 -0.028393641
000200 e8 dd af 3c a8 41 de 3c e2 2a 0c bd 06 4a 45 3d
       0.021468118 0.027130917 -0.034220584 0.048166297
000210 40 72 03 3b bc d6 8c 3c c0 bf af bb 42 7b 23 bd
       0.0020057112 0.017192237 -0.0053634346 -0.03991247
000220 8c 4c 9d 3c d6 57 28 3d 1c 02 7e 3d bc ce a8 bc
       0.01920154 0.041099392 0.06201373 -0.020606391
000230 0e f2 54 3d f2 4b 12 bd 1a 1c 74 bd c6 a0 28 3d
       0.051988654 -0.03571696 -0.059597112 0.04116895
000240 e0 f5 e0 bc 1d 55 bd bc 92 e2 8d bd 8f 1d 85 bc
       -0.027460992 -0.023111874 -0.069279805 -0.016249446
000250 89 5e 23 bd 1c ec 02 3d c8 11 25 3d d9 bf 51 bd
       -0.039885078 0.031963453 0.04030016 -0.05120835
000260 f8 e8 81 bc 84 84 bc bc fb 0a 08 3d c6 03 63 bd
       -0.015858158 -0.023012407 0.033213597 -0.05542352
000270 f0 13 c7 3c f0 8e b2 3b 36 be 35 3d 8a b8 00 bd
       0.0243015 0.0054491684 0.044370852 -0.03142599
000280 e0 50 54 3c de 0c 4c 3d a0 69 58 bb 33 51 8a 3c
       0.012958735 0.04981696 -0.0033021942 0.016884422
000290 58 13 de 3c bc d0 9f bc 18 31 3b 3c 60 e2 e9 3c
       0.027108833 -0.019508712 0.011425279 0.028550327
0002a0 c2 16 25 3d c0 84 59 bb b0 33 aa 3c 60 c9 5e 3c
       0.040304907 -0.0033190697 0.0207766 0.013597816
0002b0 68 a9 f8 bc b9 d2 97 bd d0 09 0c 3d 70 67 5c bd
       -0.030354217 -0.07413239 0.034189045 -0.053809583
0002c0 8a ba 3e 3d 38 74 78 bd 00 e4 3c ba 5c 42 43 3d
       0.046564616 -0.06065771 -0.00072056055 0.047670707
0002d0 f0 73 45 bd ae f5 3f 3d 56 e4 00 bd 58 c4 af bc
       -0.04820627 0.046865158 -0.031467758 -0.021455929
0002e0 b2 df 1a bd 94 5b 54 bd f7 ee 80 bd 12 9f 0e 3d
       -0.03781099 -0.05184515 -0.06295579 0.03481967
0002f0 a6 89 c0 3c da 20 04 bd d0 28 09 bc 1f b8 e7 3c
       0.023503136 -0.032257892 -0.008371547 0.028286038
000300 26 3e 2d bd 80 ce 75 3a c6 cb 40 bd 07 d2 15 bd
       -0.042295597 0.0009376779 -0.047069333 -0.03657725
000310 20 3f 1a 3d e0 25 14 3b b0 c1 92 3b 62 01 62 3d
       0.037657857 0.0022605583 0.0044786558 0.0551771
000320 73 8c 94 3c d9 d3 23 3d c4 7b 68 3d 18 5e 21 bc
       0.018133378 0.039996956 0.056758657 -0.009849094
000330 0e 57 38 bd 6a 65 22 bd 08 db 4f 3d 6c 00 b8 3c
       -0.045004897 -0.039647497 0.050745994 0.022461139
000340 cc d4 a9 bc 95 1b 72 bd 3c d0 0c 3d 04 fa a3 bc
       -0.020731352 -0.059108336 0.034378275 -0.020016678
000350 2b 4e 80 3b 54 5e 5f bd c0 b6 ea 3c a2 1d 7b bd
       0.0039155683 -0.054533318 0.028651595 -0.061307557
000360 98 db 25 3c 5c a7 83 bc c6 aa 69 3d 15 bf 5f bb
       0.010123156 -0.016071014 0.057047628 -0.0034140993
000370 b0 0e 4b bc 62 21 4a 3d e3 ec ef 3b 30 4e 3d bd
       -0.0123936385 0.049348243 0.0073219403 -0.046217144
000380 a6 69 5d 3d ee 04 0f bd 80 b1 7d bb f5 cc a9 bc
       0.054055832 -0.03491681 -0.0038710535 -0.020727614
000390 d0 48 22 3c 00 88 30 3b a8 51 a0 3c 30 d8 40 bd
       0.009905055 0.002693653 0.019570187 -0.047081172
0003a0 bc f1 e2 bc 78 c3 44 bd 12 26 40 3d f0 1d be 3c
       -0.027703159 -0.048037976 0.046911307 0.023207635
0003b0 00 85 6f 3b c6 c5 1d bd 32 23 5e 3d 3f ea d9 bc
       0.003654778 -0.03851869 0.054232784 -0.026600955
0003c0 aa 8e 69 bd a0 dc 01 bd 54 60 4f 3d bc d0 da bc
       -0.05702082 -0.031704545 0.050628975 -0.02671086
0003d0 d8 7f 87 3c 60 02 29 3d 48 68 a2 3c 88 31 65 bd
       0.016540453 0.04126203 0.019825116 -0.05595544
0003e0 7f 23 10 3d f7 ab 8f bd 40 93 77 3c 06 0f 2f 3d
       0.0351901 -0.070152216 0.015110791 0.042738937
0003f0 42 19 07 3d 8a d7 7d 3d b1 68 3e bd 10 4b c3 bb
       0.032983072 0.061973132 -0.04648656 -0.005959876

linear2.bias f4 [17]
000000 be 59 07 bc 3b 59 a7 bc d9 d8 af bc 3a 07 22 bd
       -0.008261142 -0.02042829 -0.021465706 -0.039557673
000010 db c6 87 bd 42 63 06 3d 9e 0c cd bc 00 96 b3 3c
       -0.066297255 0.032809503 -0.02503043 0.021922112
000020 19 73 38 3c 35 af db bc 35 ec 44 bd 78 37 3f 3c
       0.01125791 -0.026816944 -0.048076827 0.01167094
000030 4a fa 4a bd be 07 2d 3d ae a5 27 bd 38 fc 89 bd
       -0.0495551 0.04224371 -0.04092949 -0.0673756
000040 d1 e9 95 3c
       0.018299969
