model/model.pth (torch, 159503 bytes, 4 tensors)

linear1.weight f4 [256, 136]
0	0xbcab0f24	-0.020881243
1	0x3d40895a	0.04700599
2	0xbcb2e4a8	-0.021837547
3	0xbd251054	-0.040298775
4	0x3d8f2647	0.06989723
5	0xbd99bbd2	-0.07506527
6	0xbd8c6dc5	-0.068568744
7	0xbd1f9bbb	-0.038966876
8	0x3cf5fdc8	0.030028239
9	0x3da4374d	0.0801836
10	0xbc6d6760	-0.014489979
11	0xbcff8bde	-0.031194624
12	0xbd3566bd	-0.044287432
13	0xbced71d4	-0.028984942
14	0x3da927e9	0.082595654
15	0xbd1b2f0f	-0.037886675
16	0x3d8b9d27	0.06817084
17	0xbd6b4462	-0.05743826
18	0xbd01e413	-0.03171165
19	0x3d0a8ef4	0.033827737
20	0x3ac2f740	0.0014874712
21	0x3cb28c5c	0.021795444
22	0xbc8a120c	-0.016854309
23	0xbd222c87	-0.039593246
24	0x3d2e7ef2	0.042601533
25	0x3d8a805f	0.06762766
26	0xbc4fa7f0	-0.012674317
27	0x3da88955	0.08229319
28	0xbc552dc0	-0.013011396
29	0x3d1aaeb6	0.037764274
30	0x3d983145	0.074312724
31	0xbd6a5637	-0.057211127
32	0xbc672888	-0.0141087845
33	0x3d9860e5	0.07440356
34	0x3be7b120	0.0070706755
35	0xbcc6ef2c	-0.024283968
36	0xbcdaba34	-0.026700117
37	0xbd98b1e3	-0.07455804
38	0x3d3229ce	0.0434969
39	0xbbb0ece0	-0.0053993315
40	0x3d889fff	0.06671142
41	0x3a8d3640	0.0010773614
42	0xbd1a7daa	-0.0377175
43	0x3d80ce4f	0.0628935
44	0xbcb5cd00	-0.022192478
45	0x3cecd34c	0.028909348
46	0xbcaf64d0	-0.021410376
47	0x3da99b0b	0.08281525
48	0x3cc53ed8	0.024077818
49	0x3ce3f584	0.027827032
50	0xbd9a4cd8	-0.07534188
51	0x3da319b9	0.079638906
52	0xbbf0e4f0	-0.00735151
53	0x3d752e0e	0.059858374
54	0x3ce302f4	0.02771137
55	0x3d4fe61a	0.05075655
56	0x3d41fffe	0.047363274
57	0xbdabefbc	-0.08395335
58	0xbce36244	-0.027756818
59	0x3d6a7d66	0.057248496
60	0xbbb81240	-0.00561741
61	0x3c8b7640	0.01702416
62	0x3d00600a	0.03134159
63	0xbc88a65c	-0.016680889
64	0xbd386d97	-0.045026388
65	0xbd84cd8a	-0.06484516
66	0x3cff6e54	0.031180538
67	0xbd445227	-0.04792991
68	0xbd9c6942	-0.07637264
69	0xbd0cfd21	-0.03442109
70	0xbc3e20f0	-0.011604533
71	0x3b974a70	0.004617028
72	0xbdadaaee	-0.08479868
73	0x3a2eb980	0.0006665215
74	0x3daa070b	0.083021246
75	0xbd6a7711	-0.057242457
76	0x3d4f9f86	0.050689243
77	0xbd6f6ceb	-0.05845348
78	0x3d9c5b6b	0.07634624
79	0x3cf10a10	0.029423743
80	0xbcf39068	-0.029731944
81	0xbcfa8566	-0.030581187
82	0x3d8d4453	0.068977974
83	0x3d539b3a	0.051661707
84	0x3cb192c2	0.021676425
85	0x3cd8c0ff	0.026459215
86	0xbd6565da	-0.056005336
87	0x3d8e7cf2	0.06957425
88	0xbc4f4853	-0.012651521
89	0xbcab8493	-0.02093724
90	0xbd72c3ea	-0.05926887
91	0x3d471f93	0.048614096
92	0xbd601155	-0.05470403
93	0x3bb4391b	0.0054999716
94	0x3c912892	0.01771954
95	0x3d31ff5f	0.04345643
96	0xbd9843c1	-0.07434798
97	0xbd36d5d8	-0.04463753
98	0x3cbe688a	0.023243207
99	0x3d0d9e2f	0.034574684
100	0xbd92d0b9	-0.07168717
101	0x3cc4938a	0.023996133
102	0x3bc0036b	0.0058597825
103	0xbcf1fe28	-0.029540136
104	0xbc92dd2a	-0.017927725
105	0x3d97492a	0.07387002
106	0xbd870fab	-0.06594785
107	0x3ca15596	0.01969413
108	0x3d8e807f	0.069581024
109	0x3d2f7db7	0.0428445
110	0xbd886b1d	-0.06661055
111	0x3c0eafdc	0.00870892
112	0xbc5641a0	-0.01307717
113	0xbd7ecf30	-0.06220931
114	0x3d96dbd9	0.07366151
115	0x3b8511f0	0.004060976
116	0xbd901360	-0.070349455
117	0x3cc83d7c	0.02444338
118	0xbd750e66	-0.059828185
119	0xbc17cb77	-0.009264818
120	0xbd90a5e3	-0.070628904
121	0xbd1c0e82	-0.038099773
122	0xbda38099	-0.079835124
123	0xbcb3c920	-0.02194649
124	0x3d8c23be	0.06842755
125	0x3d93c641	0.07215548
126	0xbd8e2215	-0.069400944
127	0xbd887d7a	-0.06664558
128	0xbc9f9940	-0.019482255
129	0xbd2cf9b5	-0.042230327
130	0xbd427130	-0.047471225
131	0x3d4f8112	0.0506602
132	0x3cf0fab4	0.02941642
133	0x3da6e7b1	0.081496604
134	0xbc79f8c8	-0.015257068
135	0x3d48a0e2	0.048981555
136	0xbd121f14	-0.03567417
137	0x3daf25dd	0.08552144
138	0x3ceb4b2c	0.028722368
139	0xbd95356a	-0.072855785
140	0x3d9eadd5	0.077479996
141	0x3da14793	0.0787498
142	0xbd9f49b6	-0.07777731
143	0x3d987395	0.074439205
144	0x3d739c5a	0.05947528
145	0xbd8b2161	-0.06793476
146	0x3c05e648	0.008172579
147	0xbd892725	-0.06696919
148	0x3d8d95c9	0.06913335
149	0xbc844bb8	-0.016149387
150	0xbd8a0f76	-0.0674123
151	0xbc00ed48	-0.007869072
152	0x3d069c5c	0.03286396
153	0xbc37c8a0	-0.011217266
154	0x3d962d01	0.073328026
155	0xbd57d8bf	-0.05269694
156	0x3d6f52ce	0.058428578
157	0xbc914c50	-0.017736584
158	0xbda7ee75	-0.08199779
159	0x3d96db3f	0.073660366
160	0x3d9ac9c3	0.07558014
161	0xbdaf2637	-0.08552211
162	0xbd168990	-0.036752284
163	0xbd1eee4b	-0.038801473
164	0x3d2a7da2	0.04162372
165	0x3d6a3c5e	0.057186477
166	0x3c244b60	0.010027736
167	0xbb73cb20	-0.003719993
168	0xbd2d90e4	-0.042374507
169	0x3d3c7a6a	0.04601518
170	0x3c241148	0.010013886
171	0xbdac406c	-0.08410725
172	0x3d3997f6	0.045310937
173	0x3c2c0668	0.010499574
174	0x3cf8dfb4	0.030380107
175	0xbd503ce3	-0.050839316
176	0x3d0e4ab4	0.03473921
177	0x3cca821c	0.024720244
178	0xbd886a01	-0.06660844
179	0x3da1e46d	0.07904897
180	0xbd6a6199	-0.057221983
181	0xbda2dce8	-0.07952291
182	0x3da4d629	0.0804866
183	0xbd8cdd9e	-0.068782076
184	0xbc8fa748	-0.01753582
185	0xbd95355c	-0.07285568
186	0x3d99cea7	0.07510119
187	0xbda46a4b	-0.08028086
188	0x3d1fe942	0.03904081
189	0xbd086d97	-0.033307638
190	0x3d317a2e	0.04332941
191	0xbbde4510	-0.0067831352
192	0x3cca6c88	0.024709955
193	0xbd9907d4	-0.07472196
194	0x3da1485f	0.07875132
195	0xbcc2dd76	-0.023787241
196	0x3d16daf4	0.036829904
197	0x3d9ed9dd	0.07756398
198	0xbd512537	-0.05106088
199	0x3c5247e8	0.012834527
200	0x3d14f3f0	0.03636545
201	0x3cf43cf8	0.029814228
202	0x3d280422	0.041019566
203	0x3d817b8b	0.06322392
204	0xbdadaa83	-0.08479788
205	0xbd03c4ef	-0.032170232
206	0xbd50cc71	-0.05097622
207	0xbd8370d5	-0.064180054
208	0xbd1f87d6	-0.038947903
209	0x3d84171d	0.06449721
210	0x3bce0090	0.006286688
211	0xbd97d6d6	-0.074140236
212	0x3bcf8cb0	0.00633391
213	0x3d9f725b	0.077854834
214	0xbd909b08	-0.0706082
215	0x3d0d5eb2	0.034514137
216	0xbd81f4d2	-0.06345524
217	0x3da4327d	0.080174424
218	0xbd18b410	-0.037281096
219	0xbd2add32	-0.041714855
220	0x3d213706	0.039359115
221	0xbccb29d6	-0.024800222
222	0xbd3ea804	-0.04654695
223	0xbdaddbf6	-0.0848922
224	0xbd7a4364	-0.061099425
225	0x3cedaa20	0.029011786
226	0x3cc496d0	0.023997694
227	0x3d58db9e	0.05294382
228	0x3c43a998	0.01194229
229	0x3bf270c0	0.0073986948
230	0x3d32c1da	0.043641903
231	0xbbb842c0	-0.0056231916
232	0x3c2e0480	0.01062119
233	0xbccf6528	-0.02531679
234	0xbc539b00	-0.012915373
235	0x3d4a26be	0.049353354
236	0xbd24709f	-0.040146466
237	0x3c237de0	0.009978741
238	0xbc9082cc	-0.017640494
239	0x3cb39cd8	0.021925375
240	0x3c0bc4e0	0.008530825
241	0x3cace1d4	0.021103777
242	0xbd823cd4	-0.06359258
243	0x3c508528	0.012727059
244	0x3d9213ef	0.07132708
245	0xbd940e54	-0.072292954
246	0x3d528fce	0.051406674
247	0x3c3e4530	0.011613175
248	0x3ce956bc	0.028483741
249	0x3d3efcba	0.046627738
250	0x3c5d0c18	0.013491653
251	0xbd408ae9	-0.047007475
252	0x3d89dd75	0.06731693
253	0x3cf2136c	0.029550277
254	0x3d25b4ae	0.040455513
255	0xbd8261f3	-0.063663386

linear1.bias f4 [256]
0	0x3d981aad	0.07426963
1	0xbd821594	-0.06351772
2	0xbb1045ef	-0.002201434
3	0x3c58d108	0.013233431
4	0xbba6c750	-0.005089678
5	0xbd3df785	-0.04637863
6	0xbd719b1d	-0.05898582
7	0x3d83280e	0.06404124
8	0xbd5b230a	-0.053500213
9	0xbd6eaabd	-0.058268297
10	0x3d42071e	0.04737007
11	0xbd346414	-0.044040754
12	0xbd5df7cd	-0.0541914
13	0x3d93dfd7	0.072204284
14	0xbdae91f8	-0.08523935
15	0xbd85f888	-0.06541544
16	0x3bac05d6	0.005249719
17	0x3cb98ee0	0.022651136
18	0x3cb2f77c	0.021846525
19	0xbc83dd1e	-0.016096648
20	0x3c901fbc	0.017593257
21	0x3d92374e	0.07139455
22	0x3da5fe9f	0.08105206
23	0x3bf3a8a0	0.007435873
24	0x3d7c673a	0.061621882
25	0x3c83c167	0.016083432
26	0x3d9f3b43	0.07774975
27	0xbc4dbe64	-0.0125576
28	0xbd9c3b3f	-0.07628488
29	0x3c928b7c	0.017888777
30	0x3cc834f8	0.02443932
31	0x3d549bc2	0.051906355
32	0x3d862db3	0.06551685
33	0x3d3fa5df	0.046789046
34	0xbd5018c7	-0.05080488
35	0xbd9b85c8	-0.07593876
36	0x3d9fd72b	0.07804712
37	0x3d0b8704	0.034064308
38	0x3d376a1a	0.04477892
39	0x3d139842	0.036033876
40	0xbd0f897d	-0.03504323
41	0xbd20d5e2	-0.039266475
42	0x3c946a79	0.018117176
43	0x3d34688c	0.044045016
44	0xbdae9259	-0.08524007
45	0xbb807620	-0.0039203316
46	0x3b0abce4	0.0021169716
47	0x3cfe52a8	0.031045273
48	0x3da4d96d	0.08049283
49	0x3d8df683	0.06931784
50	0x3d725256	0.059160553
51	0xbc2ec180	-0.010666251
52	0xbdbb1950	-0.09135687
53	0xbd917852	-0.071030274
54	0x3c0aaf80	0.008464694
55	0xbc29cc30	-0.0103636235
56	0x3c38b91e	0.011274604
57	0xbd7a2f3d	-0.061080206
58	0x3d2c63f2	0.042087503
59	0xbc3dec95	-0.01159205
60	0x3d0bab8e	0.034099154
61	0x3c97e1e7	0.018540336
62	0x3d0d2f5e	0.034469
63	0x3d2b4f3d	0.041823614
64	0xbd9ae246	-0.075626895
65	0xbd849058	-0.06472844
66	0x3d7d42e1	0.06183136
67	0xbc9ddaac	-0.01926931
68	0xbc86afa1	-0.016441168
69	0xba3ed1d5	-0.0007279192
70	0xbd4462ab	-0.04794566
71	0x3d064c9e	0.03278791
72	0xbd971f65	-0.07379035
73	0xbca5a32c	-0.020219408
74	0x3cab2758	0.020892784
75	0xbd9e93a9	-0.07743008
76	0xbd03c51d	-0.032170404
77	0xbd4c35ec	-0.04985611
78	0xbcecaffe	-0.028892513
79	0xbcb9972c	-0.022655092
80	0x3d482da6	0.04887166
81	0xbbaac630	-0.005211614
82	0xbda4780b	-0.08030709
83	0xbc2f37b8	-0.010694437
84	0x3d8b5f46	0.06805281
85	0xbd9ddd7b	-0.0770826
86	0xbd2e2b12	-0.042521544
87	0xbda06bf6	-0.07833092
88	0xbb893776	-0.0041875197
89	0xbd69b0d5	-0.057053406
90	0xbd64449e	-0.0557295
91	0xbd8cdbcc	-0.068778604
92	0xbdbf75ee	-0.09348665
93	0x3d3d4c0a	0.046215095
94	0x3d6a31e8	0.0571765
95	0xbcb6a5d8	-0.022295877
96	0x3cb240ac	0.021759354
97	0xbd569d59	-0.052396152
98	0xbd31cb33	-0.043406677
99	0x3c605ac8	0.013693519
100	0xbda2dea2	-0.0795262
101	0x3b6e8fbb	0.0036401588
102	0xbd9c32cf	-0.076268785
103	0x3cebcd60	0.028784454
104	0xbc0dceb6	-0.008655241
105	0x3b800340	0.0039066374
106	0xbd91e900	-0.07124519
107	0x3d2eb70e	0.042655043
108	0x3d753881	0.05986834
109	0x3d0f4f2b	0.03498761
110	0xbd087546	-0.033314966
111	0xbca838c4	-0.02053488
112	0xbd9e912a	-0.077425316
113	0xbdaccb0d	-0.08437166
114	0xbdadf4ef	-0.08493983
115	0xbd52dc61	-0.0514797
116	0xbd86ecb0	-0.06588113
117	0xbc9a8f24	-0.018867083
118	0x3d8bd227	0.06827193
119	0xbc12dd60	-0.008963913
120	0xbd75a9d6	-0.05997642
121	0xbd6a22dc	-0.05716215
122	0xbd8bac36	-0.06819956
123	0x3d2ebb04	0.04265882
124	0x3d566912	0.052346297
125	0xbd8757c1	-0.066085346
126	0xbd387e95	-0.045042593
127	0xbc803f8f	-0.015655307
128	0x3d8de182	0.06927778
129	0x3c7775e8	0.015103795
130	0x3d346512	0.0440417
131	0xbd0d6645	-0.03452136
132	0x3c898033	0.016784763
133	0x3cf4ab9b	0.029866984
134	0xbda00bbf	-0.078147404
135	0x3d21e5da	0.039525844
136	0xbce1af78	-0.02754949
137	0x3cb1ee88	0.021720186
138	0xbda95367	-0.08267861
139	0xbd4d8afe	-0.05018138
140	0x3d3db6ea	0.04631702
141	0xbd6a4651	-0.057195965
142	0xbce5cfd2	-0.028053198
143	0xbc73ad7b	-0.014872904
144	0x3cd174a8	0.025568321
145	0x3d7b4e66	0.061354063
146	0xbd6451d3	-0.055742096
147	0x3d0f3ea4	0.034971848
148	0x3d8e9b19	0.06963176
149	0xbdb05796	-0.08610456
150	0x3d587723	0.052847993
151	0xbd669735	-0.056296546
152	0x3d1a8c06	0.037731193
153	0x3c983cb1	0.018583627
154	0xbd4d5bef	-0.050136503
155	0x3cbfb1ac	0.02340015
156	0xbd21c9f0	-0.039499223
157	0xbd2fb778	-0.04289958
158	0x3c8412b5	0.016122201
159	0xbb91cbc3	-0.004449339
160	0xbd79c452	-0.06097824
161	0xbd3d13d6	-0.046161495
162	0xbd87cf0d	-0.06631289
163	0xbd5c748f	-0.053822096
164	0xbd6c8333	-0.05774231
165	0x3c189eba	0.009315187
166	0xbd136404	-0.035984054
167	0xbcaa6af8	-0.02080296
168	0x3d91efe7	0.07125836
169	0xbc7f631f	-0.015587597
170	0x3cc23e68	0.023711398
171	0x3d03313f	0.032029387
172	0x3d80ae25	0.062832154
173	0xbd36c117	-0.04461774
174	0xbd39e67b	-0.04538582
175	0x3d93dbd5	0.07219664
176	0xbd728d58	-0.059216827
177	0x3b7244b4	0.003696722
178	0x3c4ec3d8	0.012619935
179	0xbd14376a	-0.03618566
180	0x3d682e8f	0.056685027
181	0xbd334da3	-0.043775212
182	0xbd832468	-0.06403428
183	0x3d8e2229	0.06940109
184	0x3d40ecd2	0.04710085
185	0xbc5ab489	-0.013348707
186	0xbcb4eb18	-0.022084758
187	0x3bf6f030	0.007535957
188	0x3d8c3841	0.06846667
189	0x3cee2c5e	0.02907389
190	0x3b7c8e20	0.0038536862
191	0x3d5046b2	0.05084867
192	0x3b2bf440	0.0026238114
193	0xbc6f9357	-0.014622531
194	0x3d7e0df6	0.062025033
195	0x3ccf6e8a	0.025321264
196	0x3d8a56e9	0.06754858
197	0xbd184ce3	-0.0371827
198	0xbc063073	-0.008190262
199	0x3cde8410	0.027162582
200	0xbd735e6f	-0.05941623
201	0xbd320228	-0.043459088
202	0xbd911ffd	-0.070861794
203	0x3dab983d	0.083786465
204	0xbd88283f	-0.06648301
205	0x3d69d5e0	0.057088733
206	0xbcb57ae8	-0.022153333
207	0xbd11376a	-0.035453238
208	0xbc8f38c8	-0.01748313
209	0x3d6dd3a6	0.05806317
210	0x3d4c4d51	0.049878422
211	0x3d0244fe	0.031804077
212	0x3d8a259c	0.06745455
213	0xbcbf11c4	-0.023323901
214	0xbd9af3cc	-0.07566032
215	0x3bd6ecc8	0.0065589882
216	0xbd883a46	-0.0665174
217	0x3d8950f7	0.06704896
218	0x3d9b03f3	0.07569113
219	0xbc5b702a	-0.013393441
220	0x3ce6c0ae	0.028168049
221	0x3c74cff3	0.014942157
222	0xbac63240	-0.0015121177
223	0x3c396714	0.01131608
224	0x3d0926f2	0.033484407
225	0x3d08d8b3	0.033409785
226	0x3cc37526	0.023859572
227	0xbcee11d8	-0.029061243
228	0xbd79a133	-0.060944747
229	0xbd977565	-0.07395438
230	0x3cb84364	0.022493072
231	0x3ccde414	0.02513317
232	0x3d034e8c	0.03205733
233	0x3d4462b2	0.047945686
234	0x3a546300	0.00081019104
235	0x3d18efb4	0.037337974
236	0x3cedc18c	0.029022954
237	0x3c4b7990	0.0124191195
238	0x3d91034c	0.07080707
239	0x3d6413de	0.05568301
240	0xbb31057a	-0.002701132
241	0xbdbd417e	-0.09241007
242	0xbc290b18	-0.010317586
243	0xbd68727e	-0.056749813
244	0xbd67d139	-0.056596015
245	0xbd4427b2	-0.04788942
246	0xbdacd619	-0.084392734
247	0xbd482376	-0.048861943
248	0xbd4ec875	-0.05048414
249	0x3d8fb3d9	0.07016725
250	0x3b9709e0	0.0046093315
251	0xbd8897be	-0.066695675
252	0xbc080ca0	-0.008303791
253	0xbdb022c1	-0.08600379
254	0x3cf9d5c3	0.030497437
255	0xbd8b9943	-0.06816342

linear2.weight f4 [17, 256]
0	0x3d7d7ea1	0.06188834
1	0xbd0f175e	-0.034934394
2	0x3d47333d	0.04863285
3	0xbccf53ec	-0.025308572
4	0x3b359a60	0.0027710423
5	0x3d382800	0.044960022
6	0xbcf83c28	-0.030302122
7	0x3cdd17e2	0.026988927
8	0x3d65e464	0.056126013
9	0xbbb69750	-0.005572237
10	0xb9e76d80	-0.00044141337
11	0x3d434758	0.04767546
12	0xbd4e07b9	-0.050300334
13	0x3c1ac1d4	0.009445626
14	0xbc487347	-0.0122345155
15	0xbd43fa08	-0.04784587
16	0x3cbb093f	0.022831557
17	0x3adeb3c0	0.0016990826
18	0xbb173800	-0.002307415
19	0xbd147e39	-0.036253188
20	0xbc9c1f30	-0.01905784
21	0xbc96e552	-0.018419895
22	0x3cbf1ee8	0.023330167
23	0x3d1b550c	0.037922904
24	0xbd4dd898	-0.050255388
25	0x3ccee332	0.02525482
26	0xbd31fdb4	-0.04345484
27	0xbc55fda3	-0.01306096
28	0x3c56371b	0.013074662
29	0xbd78d158	-0.06074652
30	0x3d52a4c6	0.05142667
31	0x3d555bea	0.05208961
32	0x3cf8b934	0.03036175
33	0x3cf95400	0.030435562
34	0xbb1c6e40	-0.0023869425
35	0xbca3776c	-0.019954406
36	0xbd227cea	-0.03966991
37	0x3d4a70ed	0.0494241
38	0x3d6b038e	0.057376437
39	0x3ce3a99f	0.027790843
40	0x3d7dd6d6	0.06197246
41	0x3d5542b4	0.052065566
42	0xbc95111d	-0.018196637
43	0x3c9e2db8	0.01930891
44	0xbcf2944a	-0.029611725
45	0xbd0c0632	-0.034185596
46	0x3d09f0ca	0.0336769
47	0xbb62f040	-0.0034628063
48	0xbcc406c0	-0.023929
49	0xbcb6f908	-0.022335544
50	0x3d745c90	0.059658587
51	0xbd5d39d4	-0.054010227
52	0x3cb3c7cb	0.021945855
53	0xbc6df11d	-0.014522818
54	0x3d38a4c2	0.045079
55	0x3cdb3780	0.026759863
56	0x3cf3cfff	0.029762266
57	0xbcbb4a3c	-0.022862546
58	0xbd542300	-0.05179119
59	0xbd2e8cca	-0.042614736
60	0x3d645cd8	0.055752605
61	0x3cfd6c34	0.030935384
62	0xbcd6dd68	-0.026228622
63	0xbca0ee60	-0.019644916
64	0xbc45cf18	-0.012073301
65	0xbcd61722	-0.026134077
66	0x3d748b76	0.059703313
67	0x3d6fb1e9	0.058519278
68	0x3d61838c	0.055057094
69	0xbc133187	-0.008983976
70	0x3bf0a8f9	0.007344362
71	0xbb17019e	-0.0023041735
72	0x3d1c71c6	0.03819444
73	0x3ce02360	0.027360618
74	0xbd15c250	-0.036562264
75	0xbbe569ac	-0.0070011225
76	0xbd008e0c	-0.031385466
77	0xbd418a60	-0.047251105
78	0xbc530278	-0.012879007
79	0x3991c300	0.00027801841
80	0x3d0f773a	0.035025813
81	0x3c51e545	0.01281101
82	0x3c6e33f8	0.0145387575
83	0x3c5c1a80	0.0134340525
84	0x3d1b7aba	0.037958838
85	0x3d1deb61	0.038554553
86	0x3c73e320	0.014885694
87	0x3be52af0	0.006993644
88	0x3d521094	0.05128534
89	0xbc391ec3	-0.011298838
90	0xbd668536	-0.056279384
91	0x3cb61948	0.022228852
92	0xbc9feeda	-0.019523073
93	0xbd4b2248	-0.04959324
94	0x3c20f73a	0.009824568
95	0xbc8f46e4	-0.017489858
96	0xbc846728	-0.01616247
97	0xbd5896f5	-0.05287834
98	0x3d571bc0	0.0525167
99	0x3d100c88	0.0351682
100	0xbd72f2a2	-0.059313424
101	0x3cc1bdda	0.023650099
102	0x3ce8ed43	0.028433448
103	0x3d4df992	0.050286837
104	0x3d5a3ab6	0.053278647
105	0x3d101344	0.035174623
106	0x3c5f4c90	0.013629094
107	0x3c4b4510	0.0124066025
108	0x3d3acdd8	0.045606464
109	0xbcdb730a	-0.026788253
110	0x3d4c36d2	0.04985697
111	0xbd1a5286	-0.037676357
112	0xbd04143e	-0.032245867
113	0x3d527fde	0.051391475
114	0xbd0b9d0c	-0.03408532
115	0x3ce30858	0.02771394
116	0xbd28c4b0	-0.0412032
117	0xbc80506c	-0.015663348
118	0xbbb4f4d0	-0.005522348
119	0xbd2fa07e	-0.042877667
120	0xbd68c8ae	-0.056832008
121	0xbb08d2d7	-0.0020877623
122	0xbd74c12a	-0.059754528
123	0xbc8cdf84	-0.017196424
124	0xbd621b92	-0.055202074
125	0x3bb18a0c	0.005418068
126	0x3c4356b6	0.011922529
127	0x3d2ae470	0.04172176
128	0x3a452249	0.00075200625
129	0xbca7a280	-0.020463228
130	0xbd3c94b0	-0.046040237
131	0xbba9d910	-0.0051833466
132	0x3d3a2a8d	0.045450736
133	0xbd48694b	-0.04892854
134	0xbd491cf2	-0.04909987
135	0xbd1d117d	-0.038346756
136	0x3c8bb288	0.017052904
137	0xbd32bdba	-0.04363797
138	0x3cabc48a	0.02096774
139	0x3d271276	0.04078909
140	0x3ba19940	0.004931599
141	0x3cf17b08	0.029477611
142	0xba81fc05	-0.0009917027
143	0xbc0fe720	-0.008783132
144	0x3d53426e	0.051577024
145	0x3cc66108	0.02421619
146	0x3c05cbd9	0.008166277
147	0x3d3ef9a4	0.046624795
148	0x3d1598bc	0.036522612
149	0x3d612f82	0.054976948
150	0xbc856772	-0.016284678
151	0xba141199	-0.0005648374
152	0x3ca7322b	0.020409664
153	0xbd780dec	-0.060560152
154	0x3c94e13a	0.018173803
155	0x3d4f24a2	0.050572045
156	0x3b963899	0.0045843837
157	0x3c3f6c98	0.011683606
158	0x3d39b638	0.045339793
159	0xbbd30784	-0.006440105
160	0x3d642246	0.05569675
161	0x3bdccbf0	0.0067381784
162	0xbd2feaf6	-0.042948686
163	0xbd55a052	-0.052154846
164	0xbd2c64c6	-0.042088293
165	0xbd3e6a9e	-0.046488397
166	0x3c792c06	0.01520825
167	0x3cd84480	0.02639985
168	0x3d2d3688	0.042288333
169	0x3c71dae6	0.014761662
170	0x3c85a374	0.016313292
171	0xbc24b6f8	-0.010053389
172	0x3c6139d8	0.013746701
173	0x3d2a210a	0.041535415
174	0x3d2da6ab	0.042395275
175	0xbcacd26f	-0.021096436
176	0xbd01c30c	-0.03168015
177	0x3aa7f68f	0.0012814569
178	0xbcb80790	-0.022464544
179	0x3c9e3d1b	0.019316247
180	0x3d0606d5	0.03272136
181	0x3d010129	0.031495247
182	0x3d2b52e1	0.041827086
183	0x3d02ae61	0.031904582
184	0xbca21ad0	-0.019788176
185	0x3d552b6c	0.052043363
186	0x3d2238a6	0.039604805
187	0xbd671880	-0.05641985
188	0x3cc01c14	0.023450889
189	0xbcaf0395	-0.021364013
190	0x3cf393c8	0.029733554
191	0x3b466900	0.0030274987
192	0x3c700db0	0.014651701
193	0xbb78a399	-0.0037939309
194	0xbc92af0c	-0.017905734
195	0xbc929051	-0.017891081
196	0x3d21a3a5	0.039462704
197	0xbd58ad07	-0.052899387
198	0x3d391d85	0.045194168
199	0xbd527e2a	-0.05138985
200	0xbd7204a2	-0.05908645
201	0x3d177d32	0.03698463
202	0x3d3695f4	0.0445766
203	0xbd49a654	-0.04923089
204	0x3c9d7464	0.019220538
205	0x3d39a840	0.04532647
206	0x3ba5c0c0	0.005058378
207	0xba479300	-0.0007613152
208	0xbd34d764	-0.044150725
209	0xbc17600d	-0.009239209
210	0x3bcb6c6b	0.006207993
211	0x3d5affda	0.053466655
212	0xbd61cb94	-0.055125788
213	0xbd5bdfc5	-0.0536802
214	0x3cedaa6c	0.029011928
215	0x3d3be67e	0.04587411
216	0x3c34ca6f	0.011034592
217	0xbd3c1c0c	-0.045925185
218	0x3b98a040	0.004657775
219	0x3d031dfd	0.03201102
220	0xbc5e1524	-0.013554845
221	0xbc737721	-0.0148599455
222	0xbcd0f128	-0.025505617
223	0xbd4fbdab	-0.05071799
224	0xbc5ef2c5	-0.013607685
225	0xbc568d49	-0.013095208
226	0xbd781403	-0.06056596
227	0x3ceb3374	0.028711058
228	0xbcc2c791	-0.023776801
229	0xbd550e6c	-0.052015707
230	0x3ca1f178	0.019768462
231	0x3d1c8594	0.038213328
232	0x3c5ccfe7	0.013477302
233	0xbbaf0690	-0.0053413585
234	0x3bb096d0	0.005389072
235	0xbc7e80b8	-0.015533619
236	0xbc740920	-0.014894754
237	0x3d35d04e	0.044388108
238	0xbb6d5711	-0.0036215226
239	0xbd49c3a4	-0.049258843
240	0x3d1343b9	0.035953257
241	0x3c0cf22b	0.008602659
242	0xbd721482	-0.05910159
243	0xbcc48304	-0.023988254
244	0xbd65ba4e	-0.056085877
245	0x3ca58a8c	0.020207666
246	0x3985c600	0.00025515258
247	0x3b2104b7	0.002456946
248	0x3c162b30	0.00916557
249	0xbcc94630	-0.0245696
250	0xbc9db1c0	-0.019249797
251	0xbd4ec6c4	-0.050482526
252	0xbd6abd2a	-0.057309307
253	0xbd0a1ed8	-0.03372082
254	0xbd286c2e	-0.041118793
255	0x3d5c7140	0.05381894

linear2.bias f4 [17]
0	0xbd4e2044	-0.05032374
1	0x3d1974be	0.03746485
2	0x3d614d4c	0.055005357
3	0x3c54bda2	0.012984665
4	0x3c8147ae	0.01578125
5	0x3d2f3125	0.042771477
6	0xbd653624	-0.055959836
7	0xbd707c5a	-0.05871234
8	0xbb9e5810	-0.004832275
9	0x3d6bc8dc	0.0575646
10	0x3d54c336	0.05194398
11	0xbd4b626a	-0.0496544
12	0xbd0c973c	-0.034323916
13	0x3d36e07b	0.044647675
14	0x39cdd700	0.00039260834
15	0xbd26b70c	-0.04070191
16	0x3d6aab80	0.05729246
